15. PyTorch for Deep Learning/Saved_Models/mnist-logistic.pth (torch, 32423 bytes, 2 tensors)

linear.weight f4 [10, 784]
000000 25 ac 05 3d 9a 84 e3 bc 20 f8 eb 3b 9c 4a 94 bb
       0.032634873 -0.02777319 0.0072012097 -0.0045254957
000010 61 bf f9 bc 9c b8 00 bd 80 52 10 3a 08 94 f0 bb
       -0.030486764 -0.031426057 0.00055054575 -0.0073418655
000020 3d a1 02 bd c0 9b 6f 3a 03 37 85 bc 00 2a 17 ba
       -0.03189205 0.0009140335 -0.016261583 -0.00057664514
000030 8a 6e 81 3b 14 49 d3 3c f1 7f 4b bc 3b 59 76 3c
       0.003949945 0.025791682 -0.01242064 0.015035923
000040 e0 9a b7 3a 4e e3 c1 3c ca 7e 33 bc 38 dc d4 bb
       0.0014007948 0.023667958 -0.010955522 -0.0064959787
000050 aa 98 a1 bc 1a f7 b5 bc 48 b1 5c 3c dc e4 92 bc
       -0.019726116 -0.022212554 0.0134700015 -0.017931394
000060 9e 15 f4 3c ab 6e 11 3d 4e bf 85 bc 7a 06 f9 bc
       0.029795464 0.03550593 -0.016326573 -0.030398596
000070 50 68 a8 bc d4 20 0b 3c 00 ef 9d 39 42 47 08 bd
       -0.020557553 0.008491714 0.00030123442 -0.03327108
000080 b4 8d a8 3c 92 4f 9f bb 12 45 e1 bc ed ed 3d 3c
       0.020575382 -0.0048617804 -0.027498756 0.01159237
000090 e2 fd ee 3c 2e 49 95 3b 49 5e 0b 3d 2d 96 ef 3c
       0.029173795 0.004555843 0.034025464 0.029246414
0000a0 a4 56 38 3c 70 af b8 3c 8c 4e 0c 3c 69 e1 05 bd
       0.0112511255 0.022544593 0.008563649 -0.03268567
0000b0 46 25 e0 bc 37 31 a3 3c 68 6c 0a 3d a9 3f 0b 3d
       -0.027361523 0.019920928 0.03379479 0.033996258
0000c0 1b be 06 bd 18 fc 94 bb a8 bf ee bc 7e 52 9e 3c
       -0.032896142 -0.0045466535 -0.029144123 0.019326445
0000d0 90 51 22 3c 58 a0 29 bc 54 c4 ed bb 97 7c 0c 3d
       0.009907141 -0.01035317 -0.00725607 0.034298506
0000e0 ee d6 d4 3c cc b5 b0 3c fc 6e a8 3c fa 52 e5 3c
       0.025981393 0.021571063 0.020560734 0.027993668
0000f0 fa c7 11 3d a8 ba 2a 3b 31 32 db bc c9 2d 55 3c
       0.035591103 0.0026051197 -0.026757332 0.013011404
000100 fb 43 0c bd 8a f4 22 bc 32 51 98 bc ba 25 7e 3c
       -0.03424452 -0.009945998 -0.018593404 0.015511924
000110 66 35 42 bc 3d ba 26 bc 2a 0c b8 bc 4b 99 f1 3c
       -0.0118535515 -0.010176239 -0.022466738 0.029492041
000120 28 a6 ba 3a ac cb 86 3b d3 a9 67 3c c9 19 05 bd
       0.0014240192 0.004113635 0.01413961 -0.032495294
000130 eb 32 c8 3c 35 12 b7 3b ad 23 f1 3c 90 0f 0f bc
       0.024438342 0.0055868872 0.029435957 -0.008731738
000140 f7 41 d2 bc ab 0e ad bc 38 5c b0 3c 6c bf 98 3c
       -0.02566622 -0.021125158 0.021528348 0.018645965
000150 e5 11 a9 bc 49 48 09 3d 76 b0 0f 3d 10 fa 5c 3c
       -0.020638416 0.033516202 0.035080396 0.013487354
000160 b2 37 ca 3c a4 b5 b1 3c 06 d0 86 3a 89 d2 ef bb
       0.02468476 0.021693058 0.0010285384 -0.007318799
000170 8b 87 a2 3c f8 1c 18 3c a6 28 65 bc 5c 81 d1 3c
       0.019840023 0.00928425 -0.013986742 0.025574379
000180 7a 1f f2 bc 93 9d 93 bb 49 d5 3b bc c2 47 ab bb
       -0.029556025 -0.0045048683 -0.011464425 -0.00522706
000190 4d b2 e5 bc 5f 2a 04 3d 4e 1f ca bc e4 2a 0b 3c
       -0.028039122 0.03226697 -0.02467313 0.008494113
0001a0 4d 2d 89 3c ff a9 be 3c d8 d5 99 bc 28 f1 70 ba
       0.016745234 0.02327442 -0.018778726 -0.00091912085
0001b0 df d6 1f 3c 78 e4 a3 bc b6 51 26 bc ba 0c f1 3c
       0.009755819 -0.020006403 -0.010151317 0.029425014
0001c0 50 3c 44 3c 72 d9 94 3c fa 25 7a bc bb d9 aa 3c
       0.01197727 0.018170092 -0.015267843 0.020855775
0001d0 c4 a5 92 3c 07 89 6c bc fa 0b af 3b 13 91 f1 3c
       0.017901309 -0.014436967 0.005342004 0.029488122
0001e0 ad 59 fe bb 2f ba 69 3c 6a df 92 bc fe 5f be bb
       -0.007762155 0.014265581 -0.017928798 -0.005809783
0001f0 be 7b 02 3d 3b fa 0d 3c 26 cf 98 3c 2d 98 c6 bc
       0.03185629 0.008665617 0.018653464 -0.024242485
000200 94 8c 80 bc 68 c3 d5 3c e2 55 4e bc a4 44 7d 3c
       -0.015692033 0.026094154 -0.012593718 0.01545826
000210 40 11 56 3c cd 89 4a bb c6 46 4a bc 2e 9c d5 3c
       0.013065636 -0.003090489 -0.012345975 0.026075449
000220 42 30 97 bc ba 28 84 3c 9e f0 0a bd 09 79 cf 3c
       -0.018455628 0.016132701 -0.033920877 0.025326269
000230 1c e8 b8 bb ca ac 11 bd b8 d4 09 3d 84 64 87 bc
       -0.005642904 -0.035565175 0.03365013 -0.016527422
000240 ec 34 8f 3c 7d be 2b bc 7a 46 c1 bc 30 fe f3 bc
       0.01748129 -0.010482428 -0.023593176 -0.029784292
000250 66 b7 79 39 64 3d c2 bc 71 6c 13 bc d2 c9 f9 bc
       0.00023814812 -0.023710914 -0.008998022 -0.030491743
000260 a6 ae 08 3d f4 56 6d 3b bf 53 e7 bc c6 0b 50 bc
       0.033369683 0.0036215158 -0.028238175 -0.0126981195
000270 19 4b a5 3b 92 e4 f1 3c 80 71 01 3d 81 e7 7c bc
       0.0050443527 0.029527936 0.031602383 -0.015436054
000280 9c d5 82 3c fb 16 0f bd 89 6f a0 bb d6 46 c9 3c
       0.015970998 -0.034934025 -0.0048961085 0.02456991
000290 ef 05 a9 3c eb 63 38 3a d6 98 23 3c 1d d5 96 3c
       0.020632712 0.0007033932 0.009985169 0.018412167
0002a0 1f 5c 0f 3d f3 30 d1 bc e4 2a a7 3c b2 17 54 3c
       0.034999963 -0.025536036 0.020406194 0.0129451025
0002b0 66 c1 5c bc 71 6d 4e bc 18 5b 01 bd 6d 5a 05 3d
       -0.013473844 -0.012599335 -0.031581014 0.03255694
0002c0 d7 59 01 3d d0 14 9f bc 41 6d b1 bc 18 5c e3 3c
       0.03157982 -0.019419104 -0.021658542 0.027753875
0002d0 a1 56 9e 3b c5 b6 eb 3c f1 bb 70 bc 99 6a 9a 3c
       0.0048321043 0.028773675 -0.014693246 0.018849658
0002e0 15 4f a7 bc a5 67 1a 3d 79 d3 94 3c 04 7a 8e 3b
       -0.020423451 0.0376965 0.018167244 0.0043480415
0002f0 ea a9 cc bc b3 41 18 3b 4d 73 e4 3c 96 a7 7b 3c
       -0.024983365 0.002323252 0.027887011 0.01535978
000300 02 4b 10 bd 17 f9 77 bc 6c 6b 02 bd d1 1c 0e 3d
       -0.035227783 -0.015135071 -0.031840727 0.03469545
000310 3d 4f f6 bc a1 6a c5 3c da 40 4d bc 7f 75 ab 3c
       -0.03006708 0.024098696 -0.012527669 0.02093005
000320 6b d4 ec 3a 3c 68 f4 bc 2d 33 8b 3c 06 38 81 3c
       0.0018068677 -0.02983486 0.016992176 0.015773784
000330 1a 03 62 3c 30 57 f0 bc 52 0f 51 3c 41 e5 b7 3c
       0.013794685 -0.02933845 0.01276 0.022448184
000340 d3 e7 fe bb 94 3c d5 bc 7d 13 cc 3c 7b fe b5 b9
       -0.0077791004 -0.026029862 0.024911636 -0.00034712613
000350 3e e8 68 3c f8 e6 7c bc 33 66 e3 bb d3 25 a7 bb
       0.014215527 -0.015435927 -0.0069396733 -0.0051009445
000360 88 e6 ac 3c 3b ea 01 bc 10 73 87 3c 91 19 8a 3b
       0.02110602 -0.00792938 0.016534358 0.0042144735
000370 ec 89 9b 3c 74 3e 63 3b ff 96 77 bb e6 6f 9f 3c
       0.018986665 0.0034674676 -0.003777921 0.019462537
000380 d3 84 08 bd 0a e6 06 3d ca 0d fb 3c 1e e2 83 3c
       -0.033329796 0.032934226 0.030646224 0.016099032
000390 73 ca de bc d2 2b 64 bc 59 27 00 bc ff ce 44 3c
       -0.027196145 -0.013926463 -0.007821881 0.012012242
0003a0 7a 1b 85 bb 58 e9 20 3b e2 f9 17 3c e5 4f 8e ba
       -0.0040621134 0.0024553146 0.009275885 -0.0010857551
0003b0 d4 bc a0 bc 71 3e 25 3c a7 1c 17 3c 91 02 f2 3c
       -0.01962129 0.010085688 0.00922314 0.02954224
0003c0 31 0f aa bb 39 07 de 3c bf 85 00 bd ba 31 3c bc
       -0.0051897992 0.027103053 -0.03137755 -0.011486465
0003d0 0b 45 c7 3c 1a 0e bf bb 71 34 c2 3c 7a d8 9f bc
       0.024324914 -0.0058305385 0.023706647 -0.019512404
0003e0 b9 71 2c 3c 08 58 52 bc c0 15 8a 3c 03 e4 cb 3a
       0.0105251605 -0.012838371 0.016856074 0.0015555624
0003f0 25 1f 08 3c 08 01 a4 3c 90 44 fe bc f8 20 3e 3b
       0.008308207 0.020020023 -0.031038553 0.002901135

linear.bias f4 [10]
000000 3e 84 16 3c 5e bc 55 3c 2c 7e 8d 3c c6 a1 5b 3c
       0.009186802 0.0130453985 0.017272078 0.013405269
000010 8b 0e 88 bc 84 95 6e 3c 54 a9 19 3c 51 2b 50 bc
       -0.016608497 0.0145620145 0.00937875 -0.01270564
000020 2f ed af bc 0f dd 01 3d
       -0.021475403 0.03170496
